lenet.pth (torch, 158372 bytes, 20 tensors)

layer1.0.weight f4 [16, 1, 5, 5]
0	0x3e10365e	0.1408324
1	0x3dfcee1a	0.12350102
2	0x3d9cb46f	0.076516025
3	0x3c14d4ab	0.009083907
4	0xbde2a8e7	-0.11067372
5	0x3a318a5c	0.00067726313
6	0xbd9716a0	-0.07377362
7	0x3dbbb7e3	0.09165933
8	0xbdc327dd	-0.09529088
9	0x3dbe3ff4	0.09289542
10	0xbe3b0401	-0.18263246
11	0xbdfd7e6b	-0.12377628
12	0x3d98bba1	0.074576624
13	0x3ddc07aa	0.10743649
14	0x3d8f89f6	0.07008736
15	0xbe21e9e7	-0.15811883
16	0xbe0c15d7	-0.13680206
17	0xbe54fe65	-0.20800169
18	0xbe3c9b7c	-0.18418688
19	0x3d5c03c5	0.053714532
20	0x3e34ab08	0.17643368
21	0x3e16e494	0.14735633
22	0x3e042afc	0.12907022
23	0xbd111c20	-0.035427213
24	0xbddf1655	-0.10892931
25	0x3ca92b46	0.020650517
26	0x3e0e755e	0.1391196
27	0xbddc642a	-0.10761292
28	0x3cf4164a	0.029795785
29	0xbc5469fc	-0.012964722
30	0x3cc8ab2f	0.02449569
31	0xbc28ef4d	-0.01031096
32	0x3e09f163	0.13470988
33	0xbe06d83b	-0.13168423
34	0xbc5a8956	-0.0133384075
35	0xbe3ee3a6	-0.18641528
36	0x3e244b61	0.1604438
37	0x3e553acd	0.20823212
38	0x3c9f6bba	0.019460548
39	0x3dbef2a6	0.09323625
40	0xbe92dd97	-0.28684685
41	0xbe48d8db	-0.19613974
42	0xbdd41489	-0.10355479
43	0x3e0074d5	0.12544568
44	0xbe3631cb	-0.17792432
45	0x3e231d6d	0.15929194
46	0xbe31a531	-0.17348172
47	0xbe1bc77b	-0.15212815
48	0xbdab02a6	-0.083501145
49	0x3d872c4c	0.06600246
50	0x3d81d17d	0.06338785
51	0x3e2acd72	0.16679934
52	0x3c4eab34	0.01261406
53	0x3d0d217c	0.03445576
54	0xbe8727ce	-0.26397556
55	0x3e58c7e0	0.21169996
56	0x3e104071	0.14087082
57	0x3d8b3b25	0.0679839
58	0xbdb7e9a7	-0.089801125
59	0xbebfc6c8	-0.37456346
60	0x3e4024c1	0.1876402
61	0xbdbd697e	-0.09248637
62	0xbea2bd3d	-0.31785002
63	0xbec9dd29	-0.39426544
64	0xbe2f8ad9	-0.1714281
65	0xbe24b1b8	-0.1608342
66	0xbe90d98c	-0.28290975
67	0xbdf3c444	-0.11902669
68	0xbe65dbe5	-0.22447164
69	0x3dd44e47	0.10366493
70	0xbd441167	-0.04786816
71	0x3df84a5e	0.121235594
72	0xbd310198	-0.04321441
73	0x3e20956a	0.15681997
74	0x3e449fb0	0.19201541
75	0xbe66f66d	-0.22554941
76	0xbdd38444	-0.10327962
77	0x3d16fa83	0.03686
78	0x3dc83d54	0.097773224
79	0x3d71f951	0.059075657
80	0xbddb0b52	-0.106955186
81	0xbeabc45a	-0.33548242
82	0xbd0c07d9	-0.03418717
83	0x3cb4fbbd	0.022092694
84	0x3ded9305	0.116003074
85	0x3cdcbe95	0.026946345
86	0xbea4b9c2	-0.32172972
87	0xbe15260e	-0.14565298
88	0xbdc3355e	-0.09531663
89	0x3e44f3e5	0.19233663
90	0x3e192fe0	0.14959669
91	0xbde6b406	-0.112648055
92	0xbeaf71a9	-0.34266403
93	0xbdc8d56a	-0.098063305
94	0xbe0025ad	-0.12514372
95	0x3e1d22f5	0.15345366
96	0x3d488a1e	0.048959844
97	0xbe2c1640	-0.16805363
98	0xbe2d8c45	-0.1694804
99	0xbdfe5bba	-0.12419839
100	0xbdeffd35	-0.11718217
101	0xbe6f0435	-0.23341449
102	0xbe9d013d	-0.30665007
103	0xbe1dfc48	-0.15428269
104	0xbd09df65	-0.03366031
105	0xbdc98650	-0.09840071
106	0xbe51a7ec	-0.20474213
107	0x3e0855c1	0.13313963
108	0x3deab55a	0.11460371
109	0xbd6465dd	-0.055761207
110	0xbead717b	-0.3387564
111	0xbb2d1b5d	-0.0026414015
112	0x3e100df0	0.14067817
113	0xbcdc3020	-0.026878417
114	0x3d96372c	0.07334742
115	0xbe6f96cc	-0.23397368
116	0xbe239243	-0.15973763
117	0x3cd9db06	0.026593696
118	0x3ca33fcf	0.019927887
119	0x3c834dfa	0.016028393
120	0xbe92866d	-0.28618184
121	0xbe6d8703	-0.23196034
122	0xbea42a31	-0.3206344
123	0xbe363070	-0.17791915
124	0xbe226048	-0.15857041
125	0xbd98f008	-0.07467657
126	0xbe220d9a	-0.15825501
127	0xbd145a74	-0.036219075
128	0xbd9c165e	-0.07621454
129	0xbd7a3c8e	-0.061092906
130	0xbe119d16	-0.1422008
131	0xbe763e28	-0.24047148
132	0x3bf2c1bd	0.0074083493
133	0xbddcffe0	-0.10790992
134	0x3e67bac4	0.22629839
135	0x3db6fbc1	0.08934737
136	0xbc19a976	-0.009378782
137	0xbe552e53	-0.20818453
138	0xbe2100c0	-0.15722942
139	0xbe33b336	-0.17548832
140	0xbd7f0bd1	-0.06226713
141	0xbe6a8568	-0.22902453
142	0xbde9b988	-0.114123404
143	0xbe8f34f5	-0.2797009
144	0xbe89ae64	-0.26890862
145	0xbe8ee1e7	-0.27906725
146	0xbe5415ae	-0.20711395
147	0x3d61995c	0.055077896
148	0xbde000ac	-0.10937628
149	0xbe1d21c6	-0.15344915
150	0x3dd863fb	0.10565945
151	0x3de7a57e	0.11310862
152	0xbe2b2eec	-0.16717118
153	0xbe83e99b	-0.25764164
154	0xbbb82f50	-0.0056208745
155	0x3d3cb29d	0.046068776
156	0x3e583848	0.2111522
157	0xbe6c0b8d	-0.23051281
158	0xbe345d1b	-0.17613642
159	0x3b27b723	0.0025591336
160	0x3d66e357	0.056369152
161	0xbd964407	-0.07337194
162	0xbde10a5e	-0.109883055
163	0xbe8070ba	-0.25086004
164	0xbdd2d020	-0.10293603
165	0xbc8132f7	-0.015771372
166	0xbd662bb1	-0.05619401
167	0xbe0570b7	-0.13031279
168	0xbe8ef918	-0.27924418
169	0x3d11c638	0.035589427
170	0xbe122721	-0.14272739
171	0xbe5ff868	-0.21872103
172	0xbea15b7b	-0.31515107
173	0xbd25db31	-0.04049224
174	0xbd29d03c	-0.041458353
175	0xbe51c7b8	-0.20486343
176	0x3c94c4cd	0.018160248
177	0x3dad78c3	0.08470299
178	0x3dc2862f	0.0949825
179	0x3e0969b1	0.13419224
180	0xbe5dfca6	-0.21678409
181	0xbd561b5f	-0.052272197
182	0x3d959e18	0.073055446
183	0x3e444be6	0.19169578
184	0xbd3e73c9	-0.04649714
185	0xbdb6235d	-0.08893464
186	0xbe0a7ee0	-0.13524961
187	0x3e7b0ddd	0.24517007
188	0x3d2e01ee	0.04248231
189	0xbddd1037	-0.10794108
190	0xbd90a839	-0.07063336
191	0x3d8a446e	0.06751333
192	0x3d2ea615	0.042638857
193	0x3d781132	0.060563274
194	0x3cd69e18	0.026198432
195	0xbe329c18	-0.17442358
196	0x3d15dc79	0.036587212
197	0x3da3e162	0.08001973
198	0x3ce209a6	0.027592491
199	0xbe12cfd9	-0.143371
200	0xbd82f723	-0.06394794
201	0x3e0b9846	0.13632306
202	0xbe30438d	-0.17213269
203	0xbe1a9f54	-0.15099841
204	0xbdd0bfd0	-0.10192835
205	0x3e1e50be	0.15460488
206	0xbd878a76	-0.06618206
207	0x3ca8b031	0.020591827
208	0xbe116e37	-0.142022
209	0xbe10ba10	-0.14133477
210	0x3d7fd145	0.062455434
211	0x3e59a3b0	0.21253848
212	0xbda20d66	-0.07912712
213	0xbe0db9a3	-0.13840346
214	0xbe4a810f	-0.19775794
215	0xbc2dd280	-0.010609269
216	0x3e14dc1e	0.14537093
217	0x3d9a6f2d	0.07540736
218	0xbd9d549f	-0.07682156
219	0xbe4ce014	-0.20007354
220	0x3e1435e3	0.14473681
221	0x3c69b854	0.014265139
222	0x3dd2f593	0.10300746
223	0xbc8ebb01	-0.017423155
224	0x3b270958	0.0025487747
225	0xbe5b54de	-0.21419093
226	0xbebcdff9	-0.36889628
227	0xbe67a37e	-0.22620961
228	0xbe38cc1f	-0.18046616
229	0xbe92c98d	-0.28669396
230	0xbe447c67	-0.1918808
231	0xbdd64210	-0.10461819
232	0xbe379524	-0.17927986
233	0xbdc0644c	-0.0939413
234	0xbcc55272	-0.024087165
235	0x3c79cafb	0.015246148
236	0x3dde608f	0.10858261
237	0xbc85bcbb	-0.016325345
238	0xbdb8281d	-0.08992026
239	0x3cca6ea7	0.024710966
240	0x3df6cb83	0.120505355
241	0x3df272b8	0.11838287
242	0x3be22372	0.006901198
243	0xbc4265bf	-0.0118650785
244	0x3d34f42b	0.04417817
245	0xbdceb4dc	-0.1009309
246	0x3da005c0	0.07813597
247	0x3d96437c	0.073370904
248	0x3d812108	0.06305128
249	0x3e5563a7	0.20838796
250	0x3de9bdd1	0.11413158
251	0x3dbf01cc	0.093265146
252	0x3dfafe09	0.122554846
253	0x3e09c384	0.1345349
254	0x3e2335b4	0.15938455
255	0x3e2f5820	0.17123461

layer1.0.bias f4 [16]
0	0x3da852dc	0.08218929
1	0x3dd55329	0.10416252
2	0xbe616c4c	-0.22013968
3	0xbe4f8562	-0.20265725
4	0x3d035af8	0.032069176
5	0xbe2b46ed	-0.16726275
6	0xbe163bf7	-0.14671312
7	0xbe042cf9	-0.1290778
8	0xbd5ee0e4	-0.05441369
9	0xbe497a8a	-0.19675651
10	0x3e1839f4	0.14865857
11	0xbd5e21ff	-0.05423164
12	0xbe3a71a1	-0.18207408
13	0x3d4481ac	0.047975227
14	0x3de80fb2	0.11331119
15	0xbd99b5e9	-0.075054

layer1.1.weight f4 [16]
0	0x3f7880c3	0.97071475
1	0x3f7f6dc0	0.9977684
2	0x3f98debc	1.1942973
3	0x3f8eef2e	1.1166742
4	0x3f85bf55	1.0449015
5	0x3f83c672	1.0294936
6	0x3f8f2642	1.118355
7	0x3f7b28b8	0.98109007
8	0x3f83b5a8	1.0289812
9	0x3f897206	1.0737922
10	0x3f78ba8f	0.97159666
11	0x3f7b4d30	0.98164654
12	0x3f845eb6	1.0341403
13	0x3f8393ed	1.0279518
14	0x3f86e102	1.0537417
15	0x3f7c8282	0.9863664

layer1.1.bias f4 [16]
0	0xbda475c7	-0.08030277
1	0xbd72c8a8	-0.059273392
2	0xbde1a431	-0.11017645
3	0xbda3c8b7	-0.07997268
4	0xbc6e2cf8	-0.014537089
5	0x3ce37334	0.027764894
6	0x3d1bc3ff	0.038028713
7	0xbc83a4cd	-0.016069794
8	0xbd9dc92e	-0.077043876
9	0x3be75b29	0.0070604277
10	0xbd50180f	-0.050804194
11	0xbd892eb8	-0.06698364
12	0xbdafeff6	-0.08590691
13	0xbd79a815	-0.06095131
14	0xbda10468	-0.078621686
15	0xbda91223	-0.082554124

layer1.1.running_mean f4 [16]
0	0x3da33491	0.079690106
1	0x3dce0a50	0.10060561
2	0xbe71999c	-0.23593754
3	0xbe9145a1	-0.28373435
4	0xbe2111f5	-0.15729506
5	0xbec2b667	-0.38029787
6	0xbe9ec8b8	-0.3101251
7	0xbda28c49	-0.079369135
8	0xbd8c1f63	-0.06841924
9	0xbe9495f1	-0.29020646
10	0x3eb3c2e2	0.3510962
11	0xbd8623b4	-0.065497786
12	0xbe4a8324	-0.19776589
13	0x3d40eb18	0.047099203
14	0x3db99294	0.09061161
15	0xbda66141	-0.081240185

layer1.1.running_var f4 [16]
0	0x3c81234a	0.015763897
1	0x3c66cc83	0.014086845
2	0x3d24073e	0.04004597
3	0x3d1cfa47	0.03832462
4	0x3ddefaba	0.10887666
5	0x3dfd4103	0.123659156
6	0x3db488cb	0.08815154
7	0x3d1ed959	0.038781498
8	0x3d499b71	0.049220506
9	0x3d819abb	0.063283406
10	0x3db84a39	0.08998532
11	0x3ca675c9	0.020319836
12	0x3d49f689	0.04930738
13	0x3c92de43	0.017928248
14	0x3d593e61	0.053038005
15	0x3cb53a49	0.02212252

layer2.0.weight f4 [32, 16, 5, 5]
0	0x3c51eb2d	0.012812418
1	0x3d0147b7	0.031562533
2	0x3c0aaeaa	0.008464495
3	0x3b1f9b2f	0.0024353971
4	0x3b64f78b	0.0034937586
5	0xbd13e276	-0.03610464
6	0xbd0d3a09	-0.034479175
7	0xbc52a6d0	-0.012857154
8	0x3cbf9a7b	0.023389092
9	0xbb1a461b	-0.0023540321
10	0x3ceeed84	0.02916599
11	0x3d38e64e	0.04514151
12	0x3c9c5a64	0.01908607
13	0xbc415238	-0.011799388
14	0xbd7395ae	-0.059468918
15	0x3d9c0eb5	0.07619993
16	0x3d9da0cb	0.076966844
17	0x3c418ad1	0.011812882
18	0xbbca6229	-0.0061762524
19	0xbdd62446	-0.10456137
20	0x3daa983f	0.0832982
21	0x3d562f20	0.052291036
22	0x3cdbe3fc	0.02684211
23	0xbd50c374	-0.05096765
24	0xbd5cb8bc	-0.053887114
25	0xbd7323d4	-0.05936034
26	0x3c0e3db9	0.008681708
27	0xbce61d09	-0.028090017
28	0xbd6c4d9f	-0.057691213
29	0x3caee9aa	0.021351654
30	0xbc3def7c	-0.011592742
31	0xbd87ba07	-0.06627279
32	0x3d0bf7e8	0.03417197
33	0xbcc16034	-0.023605444
34	0xbd3fd1a7	-0.0468308
35	0x3ca9b107	0.020714296
36	0xbc9fe6f5	-0.019519309
37	0xbd5f8543	-0.054570448
38	0xbd0dc0f5	-0.034607846
39	0xbdf3828c	-0.11890134
40	0x3db4b0d1	0.088227876
41	0x3d6c457d	0.057683457
42	0xbc49dd8d	-0.012320888
43	0xbd199a8c	-0.037500903
44	0xbd8df6bb	-0.06931826
45	0x3e01d092	0.1267722
46	0x3db8e0fd	0.09027288
47	0x3d5d7588	0.054067165
48	0xbd512fbb	-0.05107091
49	0xbd6b6030	-0.05746478
50	0xbab2f3ac	-0.0013652942
51	0xbc9e1f2a	-0.01930197
52	0x3bf75d52	0.0075489664
53	0x3d0ccd1f	0.034375306
54	0xbd6f59cd	-0.05843525
55	0xbc1cc465	-0.0095683085
56	0xbd4c9ea2	-0.04995597
57	0xbc8419dc	-0.016125612
58	0x3c4aeb2c	0.012385171
59	0xbba99505	-0.005175235
60	0xbcd22cbf	-0.025656102
61	0x3d0d1fb1	0.03445405
62	0xbbc42034	-0.005985284
63	0x3d1e1641	0.03859544
64	0x3c0dec3b	0.008662279
65	0x394d718c	0.00019592623
66	0x3d3279e7	0.043573286
67	0x3d6ac6e4	0.057318583
68	0x3ca23d1d	0.019804532
69	0x3d316880	0.04331255
70	0xbd1dded5	-0.038542587
71	0xbd43797a	-0.04772327
72	0x3d1db358	0.038501114
73	0xbca00244	-0.01953233
74	0xbd8543e8	-0.06507093
75	0xba172cc3	-0.0005766863
76	0x3d517b63	0.05114306
77	0x3abf97bb	0.0014617363
78	0x3d8a7fbf	0.06762647
79	0x3c2708d5	0.010194977
80	0x3d231b3a	0.039820887
81	0x3ababcf0	0.0014246982
82	0x3cba4d05	0.022741804
83	0x3b274ce7	0.0025528015
84	0x3d348511	0.044072215
85	0x3d0d115f	0.034440394
86	0x3d4c3ae9	0.04986087
87	0xbd3b7590	-0.045766413
88	0x3ce8a026	0.028396677
89	0x3d04605e	0.032318465
90	0xbda181d1	-0.07886089
91	0xbe02d340	-0.12775898
92	0xbd8c7bc3	-0.06859543
93	0xbdabe1d9	-0.083926864
94	0xbd52220c	-0.051302
95	0xbd4e1dc8	-0.05032137
96	0x3c31adb2	0.010844635
97	0xbdd941ab	-0.10608228
98	0xbdc9d446	-0.09854941
99	0xbd03792e	-0.032097988
100	0x3d8da679	0.06916518
101	0x3d7613d2	0.060077496
102	0x3bf33525	0.007422107
103	0xbd9f3ba1	-0.07775045
104	0x3c6e7b15	0.014555712
105	0x3c8e72ff	0.017388819
106	0x3d4ac847	0.049507406
107	0xbd0592a1	-0.03261054
108	0x3c53ef20	0.01293543
109	0xbcbe0ce6	-0.02319951
110	0x3ce8ee05	0.028433809
111	0x3cff4463	0.031160539
112	0x3d264f7c	0.040603146
113	0x3d7201df	0.059083816
114	0x3d8e557c	0.069498986
115	0xbcf64c02	-0.03006554
116	0xbd3baf1b	-0.04582129
117	0xbcdcad61	-0.026938142
118	0xbce556ed	-0.027995551
119	0xbd7cb214	-0.061693266
120	0x3c914f2d	0.01773795
121	0x3dc6c7ec	0.09706101
122	0x3ceb733d	0.028741473
123	0xbd260c1f	-0.040538903
124	0xbc955e81	-0.01823354
125	0x3c269262	0.010166736
126	0xbcb6348c	-0.022241853
127	0x3cc979ec	0.02459427
128	0xbcee5ab6	-0.029095989
129	0x3d4c2847	0.0498431
130	0x3cd4d05e	0.025978263
131	0x3c9ecb41	0.019384028
132	0x3cdcbef6	0.026946526
133	0xbc54ce5f	-0.012988656
134	0xbce4ab9a	-0.027913857
135	0xbc36655f	-0.011132567
136	0x3c1276a3	0.008939418
137	0x3d17c72e	0.037055187
138	0x3c983f86	0.018584978
139	0x3da46ddf	0.08028769
140	0xbd49791c	-0.049187765
141	0xbd9e6deb	-0.07735809
142	0xbd3c2417	-0.045932855
143	0xbc5d2d0b	-0.013499509
144	0xbd12caa8	-0.0358378
145	0xbd50efee	-0.051010065
146	0x3cf1a853	0.029499209
147	0x3cdd7b7c	0.027036421
148	0xbc3e7b01	-0.011626006
149	0x3d7047ed	0.058662344
150	0x3ada8f08	0.0016674707
151	0x3c8c2933	0.017109489
152	0xbcaa3e47	-0.02078165
153	0x3c9644b4	0.018343307
154	0x3d1bdd45	0.038052816
155	0xbc69f410	-0.01427938
156	0xbc1af81f	-0.009458571
157	0x3a853b72	0.0010164811
158	0x3d13d22e	0.036089115
159	0xbb0deec5	-0.002165721
160	0xbd0b7e36	-0.03405591
161	0xbc9b4dc5	-0.018957982
162	0xbbb62f0f	-0.005559809
163	0x3da55b97	0.0807411
164	0xb9df6f30	-0.00042616716
165	0xbdf31535	-0.11869279
166	0xbde3f537	-0.111307554
167	0xbda0496e	-0.078265056
168	0x3b4b2477	0.0030997077
169	0xbcb51bd4	-0.022107996
170	0xbdfcea68	-0.12349397
171	0xbd29265b	-0.041296344
172	0xbcab1502	-0.02088404
173	0x3d37953d	0.04482006
174	0x3d024b09	0.03180984
175	0xbbe60904	-0.0070201177
176	0x3caf57af	0.021404115
177	0x3d963ccd	0.073358156
178	0x3cbd8019	0.02313237
179	0x3d8fa84d	0.07014523
180	0xbdba7d1e	-0.091058955
181	0xbc7a5318	-0.0152786
182	0xbbabe75a	-0.005246085
183	0x3cd49491	0.025949748
184	0x3db15063	0.08657911
185	0xbc904344	-0.0176102
186	0xbccdfe79	-0.025145756
187	0x3bc581df	0.0060274447
188	0x3cda3440	0.026636243
189	0x3d40f19d	0.04710542
190	0xbd24c767	-0.040229227
191	0xbd06df54	-0.032927826
192	0xbc2017e7	-0.009771324
193	0x3cc0f1b5	0.023552755
194	0x3c774251	0.015091495
195	0xbcfb429c	-0.03067141
196	0xbd1c83e9	-0.038211737
197	0xbc6d3f87	-0.014480478
198	0xbcb14667	-0.021640016
199	0x3d3c3bc7	0.045955446
200	0x3c6f0e91	0.014590875
201	0xbcfdba98	-0.030972764
202	0x3d2cf65b	0.04222713
203	0xbbab6a41	-0.0052311723
204	0x3c87d5a4	0.016581364
205	0x39700144	0.00022888655
206	0xbcb9f7e1	-0.022701206
207	0xbc47a1a4	-0.012184534
208	0x3b7c3207	0.0038481967
209	0x3dcac728	0.09901267
210	0x3cedbf90	0.029022008
211	0x3cddddd1	0.02708331
212	0xbc60259c	-0.013680842
213	0x3d354172	0.044251867
214	0xbc8159bc	-0.015789859
215	0x3cfb90d8	0.030708715
216	0x3bf277c8	0.007399533
217	0xbc11c20a	-0.00889636
218	0x3d6aae41	0.057295088
219	0xbd431992	-0.047631808
220	0xbd96e104	-0.07367137
221	0xbd567a6d	-0.052362848
222	0xbdabd043	-0.08389332
223	0xbdef32b0	-0.1167959
224	0xbe1f7250	-0.1557095
225	0xbd53f6df	-0.051749106
226	0xbd71289a	-0.05887661
227	0xbd887c72	-0.06664361
228	0xbdb85806	-0.09001164
229	0xbd6d6fe7	-0.057968047
230	0xbd7524b1	-0.059849445
231	0xbda025f7	-0.07819741
232	0xbd9d2fc0	-0.07675123
233	0xbb27fa0b	-0.0025631215
234	0xbc91c07d	-0.01779198
235	0x3b99560b	0.0046794466
236	0x3b959a9b	0.0045655495
237	0xbc34674d	-0.011010957
238	0xbcf04794	-0.029331006
239	0xbcb4fdd1	-0.022093685
240	0x3d9cc3c0	0.07654524
241	0x3da064a7	0.07831698
242	0x3cfcb5dc	0.030848436
243	0xbd1d8389	-0.03845552
244	0xbc080d74	-0.008303989
245	0xbd0460d5	-0.03231891
246	0xbcc03c33	-0.023466205
247	0xbbaf79c8	-0.0053550936
248	0xbc54cd88	-0.012988456
249	0xbd8840dd	-0.06652997
250	0xbd618d17	-0.055066194
251	0xbc86c7be	-0.016452666
252	0xbba876f4	-0.0051411334
253	0xbc6a3e34	-0.014297057
254	0xbc3123fc	-0.010811802
255	0xbd16a142	-0.03677488

layer2.0.bias f4 [32]
0	0xbd55a10d	-0.052155543
1	0xbcdfd035	-0.02732096
2	0xbbf9df73	-0.007625514
3	0x3c9df383	0.019281154
4	0xbcbea813	-0.023273503
5	0xbc4ab8ca	-0.012373159
6	0xbcaa6f30	-0.020804971
7	0xbbe81271	-0.0070822765
8	0xbd21fa3e	-0.03954529
9	0xbd1b9545	-0.03798415
10	0x3d046632	0.032324024
11	0x3c610827	0.013734854
12	0xbd3a65b0	-0.045507133
13	0xbd9260df	-0.07147383
14	0xbd6e20dc	-0.058136806
15	0xbb2d7610	-0.0026468076
16	0xbd694d5d	-0.056958545
17	0xbceb5b6b	-0.028730115
18	0x3d18840c	0.037235305
19	0x3ccc7bea	0.02496143
20	0xbcc92b38	-0.024556741
21	0xbd9abf84	-0.0755606
22	0xbd38d5c7	-0.04512575
23	0xbc4936a8	-0.0122810975
24	0xbd3f316f	-0.046678003
25	0xbca12301	-0.019670011
26	0xbce75a41	-0.028241279
27	0x3d3cc8a8	0.0460898
28	0xbcfdbc7e	-0.03097367
29	0xbd95733e	-0.07297371
30	0x3cb4c8d2	0.022068415
31	0xbcaff1e2	-0.021477643

layer2.1.weight f4 [32]
0	0x3f7f41ef	0.9970998
1	0x3f87e529	1.0616809
2	0x3f842358	1.0323286
3	0x3f7b39d9	0.98135144
4	0x3f8c1044	1.0942464
5	0x3f880bc6	1.0628593
6	0x3f7ec0ff	0.9951324
7	0x3f89d541	1.0768205
8	0x3f8030f3	1.0014938
9	0x3f7ffed3	0.99998206
10	0x3f77138e	0.96514213
11	0x3f888820	1.0666542
12	0x3f8a171b	1.0788301
13	0x3f83ff44	1.0312276
14	0x3f857fab	1.0429586
15	0x3f8a5ea2	1.081013
16	0x3f82afe3	1.0209926
17	0x3f7ffb4e	0.99992836
18	0x3f842425	1.032353
19	0x3f7d7bed	0.9901722
20	0x3f8a45e5	1.080258
21	0x3f770eab	0.96506757
22	0x3f804738	1.0021734
23	0x3f7e08bc	0.9923208
24	0x3f8694d1	1.0514165
25	0x3f864505	1.0489813
26	0x3f8290c0	1.0200424
27	0x3f7a443c	0.9776037
28	0x3f80ff35	1.0077883
29	0x3f85dc69	1.0457889
30	0x3f8d4fcc	1.1039977
31	0x3f811b13	1.0086387

layer2.1.bias f4 [32]
0	0xbc79a004	-0.015235905
1	0xbd57bfcb	-0.052673142
2	0xbcf95a6a	-0.03043862
3	0xbdb9fd9f	-0.090815775
4	0xbc67aee1	-0.0141408155
5	0xbd471fd3	-0.048614334
6	0xbd741dc8	-0.059598714
7	0xbbbb25af	-0.0057112793
8	0xbd7b6db2	-0.06138391
9	0xbdcdc56c	-0.10047421
10	0xbdbe8f7c	-0.09304711
11	0xbd8144be	-0.0631194
12	0xbd6eb6a2	-0.05827964
13	0xbdc404af	-0.09571206
14	0xbd994290	-0.07483399
15	0xbdc677b8	-0.09690803
16	0xbda22a29	-0.07918198
17	0xbd98f544	-0.07468656
18	0xbd704445	-0.058658857
19	0xbd0890db	-0.03334127
20	0xbd7d7035	-0.061874587
21	0xbd70b15b	-0.05876289
22	0xbd145290	-0.03621155
23	0xbd16a402	-0.036777504
24	0xbd899697	-0.06718176
25	0xbd451daa	-0.048123993
26	0xbd7b5791	-0.061362807
27	0xbcbc7c46	-0.023008477
28	0xbd74c35b	-0.059756618
29	0xbdb1d76a	-0.08683665
30	0xbd8e4073	-0.069458865
31	0xbd171ba1	-0.036891583

layer2.1.running_mean f4 [32]
0	0xbec841ae	-0.3911261
1	0xbeea3404	-0.4574281
2	0xbf060ab9	-0.5236011
3	0xbe295bc2	-0.16538909
4	0xbf265792	-0.6497737
5	0xbe666b61	-0.225019
6	0x3d8383a2	0.06421591
7	0xbef8b3ce	-0.4857468
8	0xbe4dc9d0	-0.20096517
9	0xbdbe223e	-0.09283875
10	0xbe8bf9f9	-0.27339152
11	0xbec6605f	-0.387454
12	0x3e8d1274	0.2755314
13	0xbef1b365	-0.4720718
14	0xbf1da019	-0.61572415
15	0x3e4f94f7	0.2027167
16	0xbf9e3231	-1.2359067
17	0xbe8fb2c1	-0.28066066
18	0xbe8ccfb6	-0.2750222
19	0xbe59e717	-0.2127956
20	0xbf238658	-0.6387687
21	0x3cc303d8	0.023805544
22	0xbf538fd4	-0.8264134
23	0xbe06a386	-0.13148317
24	0xbe563d5b	-0.20921843
25	0xbf531de4	-0.82467484
26	0xbf36c4c6	-0.71394
27	0xbd5d1e88	-0.053984195
28	0x3e8e9bb5	0.2785317
29	0xbe9c78fd	-0.30561057
30	0xbf2ab804	-0.66687036
31	0xbf42ecf6	-0.76142824

layer2.1.running_var f4 [32]
0	0x3e874563	0.26420125
1	0x3ed02c63	0.40658864
2	0x3eb2a5f0	0.34892225
3	0x3ed97f71	0.42480043
4	0x3effd7d5	0.49969354
5	0x3eb1957f	0.3468437
6	0x3ed99d03	0.42502603
7	0x3f08895a	0.5333458
8	0x3eeb44c0	0.4595089
9	0x3ec4c7af	0.38433596
10	0x3e66e778	0.22549236
11	0x3f086d0b	0.53291386
12	0x3ee689fd	0.45027152
13	0x3e8580ff	0.2607498
14	0x3e3e808c	0.18603724
15	0x3eef3e3c	0.4672717
16	0x3e8938e4	0.26801217
17	0x3f070377	0.5273966
18	0x3e5f4c22	0.21806386
19	0x3ed45f59	0.41478994
20	0x3eae791a	0.34076768
21	0x3e5530c9	0.20819391
22	0x3e5a6698	0.21328199
23	0x3eb3824d	0.3506035
24	0x3e8bcfe2	0.2730704
25	0x3edd9ceb	0.4328378
26	0x3eb9e979	0.36310938
27	0x3e3e8fba	0.18609515
28	0x3eb1e665	0.3474609
29	0x3f07b51f	0.53010744
30	0x3eaf7627	0.3426983
31	0x3ec2b106	0.38025683

layer3.0.weight f4 [64, 32, 3, 3]
0	0xbd90cbaa	-0.07070096
1	0x3cabdd56	0.020979565
2	0xbd413d97	-0.047177877
3	0xbc0b7bb9	-0.0085133845
4	0x3c9a26d1	0.018817337
5	0x3a823ca6	0.0009936288
6	0x3c525640	0.012837946
7	0xbc4a1e49	-0.012336322
8	0x3cf58cb5	0.02997432
9	0x3b4cc341	0.003124431
10	0x3da50de6	0.080592915
11	0x3cddcfa8	0.027076557
12	0xbd975a22	-0.07390238
13	0xbcb5c1b8	-0.022187099
14	0x3bf0af54	0.0073451195
15	0xbd8657c4	-0.06559709
16	0x3c8ee1e2	0.017441694
17	0x3d2b51c1	0.041826013
18	0xbd0ef27d	-0.034899224
19	0x3d10bcac	0.03533618
20	0xbdbf1a90	-0.09331238
21	0x3c098a89	0.008394846
22	0xbd298453	-0.04138596
23	0xbda34df9	-0.079738565
24	0x3d888239	0.06665463
25	0xba2499b2	-0.0006279006
26	0xbd02d76f	-0.031943735
27	0xbd03cbc2	-0.03217674
28	0xbda2c1d9	-0.0794713
29	0x3ca15670	0.019694537
30	0xbd993c63	-0.07482221
31	0xbd17a14d	-0.037019063
32	0x3cae90e5	0.021309325
33	0xbb9369aa	-0.00449868
34	0x3d54b7a6	0.051932953
35	0x3d93bca0	0.07213712
36	0x3cab5c90	0.02091816
37	0x3c9b6681	0.018969776
38	0xbd051a88	-0.032496005
39	0xbd30b141	-0.043137792
40	0xbd01dccb	-0.031704705
41	0x3caaf156	0.020867031
42	0xbd725457	-0.059162464
43	0x3cccb323	0.024987763
44	0x3cfe0c6a	0.031011779
45	0x3df9edeb	0.122035824
46	0x3e0de97f	0.13858603
47	0x3d82e63b	0.06391569
48	0x3da101a5	0.07861642
49	0xbc9a69ac	-0.018849216
50	0xbcdff976	-0.027340632
51	0x3d950e3d	0.07278106
52	0x3dacdcf1	0.08440579
53	0x3e0f0e6c	0.13970345
54	0x3dd6e534	0.10492936
55	0xbbdb00ab	-0.0066834292
56	0x3d5ec7a9	0.05438963
57	0xbcf71e72	-0.030165885
58	0xbd28e804	-0.041236892
59	0xbd5be8c6	-0.053688787
60	0xbcc1b05f	-0.02364367
61	0xbc58c602	-0.0132308025
62	0xbd3c82a2	-0.04602302
63	0xbd287838	-0.041130275
64	0xbda3e257	-0.08002155
65	0xbd4cf712	-0.050040312
66	0xbd84d88a	-0.06486614
67	0x3bdcc41a	0.0067372443
68	0x3bc75f28	0.0060843416
69	0xbce78136	-0.028259855
70	0xba304af6	-0.0006725037
71	0x3bfb110a	0.0076619433
72	0xbc872098	-0.016495034
73	0xbcaec31c	-0.02133327
74	0xbd105521	-0.035237435
75	0x3d8c8e2e	0.06863056
76	0x3dc88f4d	0.097929575
77	0xbcbe3b6b	-0.023221692
78	0x3d3b2ef4	0.045699075
79	0xbcf1a0ac	-0.02949556
80	0xbd69ebd5	-0.057109673
81	0x3d73dc51	0.059536282
82	0xbbf70b16	-0.0075391633
83	0x3c0fa704	0.008767847
84	0xbd394af4	-0.045237496
85	0xbc9de488	-0.019274011
86	0xbd30c2d3	-0.04315455
87	0xbd0422ae	-0.032259636
88	0xbd1ecef1	-0.038771573
89	0xbabfe174	-0.0014639334
90	0x3c8c8731	0.017154308
91	0x3b834826	0.0040064035
92	0xbd04482e	-0.0322954
93	0x3c6f999b	0.014624025
94	0xbc80740b	-0.015680334
95	0x3cc0dda9	0.023543196
96	0x3cd27248	0.02568926
97	0x3cca48a5	0.024692843
98	0xbdbc9f10	-0.09210026
99	0x3cbc9a3f	0.023022769
100	0xbb4a9b09	-0.0030915162
101	0xbbb5d740	-0.0055493414
102	0xbdc278a8	-0.094956696
103	0xbdc32465	-0.09528426
104	0xbd7e414d	-0.062073994
105	0xbd1903b7	-0.03735706
106	0xbc8a2d24	-0.016867228
107	0xbd0b9997	-0.03408202
108	0xbc9171bb	-0.017754426
109	0x3dac29b8	0.08406395
110	0x3d1a3a5a	0.037653305
111	0x3bd95907	0.0066329273
112	0x3da9a338	0.08283085
113	0x3d6d6cc4	0.057965055
114	0x3d1cdc64	0.03829612
115	0x3a9c9458	0.0011946065
116	0x3d959d8c	0.0730544
117	0x3c8fb637	0.017542941
118	0x3cdce7ad	0.02696594
119	0x3ba5154d	0.0050379396
120	0x3cf7ea8a	0.030263204
121	0x3d6aa23e	0.057283632
122	0x3d45c009	0.048278842
123	0x3bfe76fa	0.007765648
124	0xbc7867d0	-0.01516147
125	0x3d5dca41	0.054147962
126	0xbd211269	-0.039324198
127	0x3cb36efe	0.021903511
128	0xbd2f5a32	-0.042810626
129	0xbceeb437	-0.029138668
130	0xbc6d65d9	-0.014489614
131	0x3d606ce1	0.054791335
132	0x3cb4a94c	0.022053383
133	0x3db44425	0.0880206
134	0x3d68269c	0.056677446
135	0xbad8922c	-0.0016523055
136	0x3e0bb0de	0.13641688
137	0x3e02acaf	0.12761186
138	0x3cf15d1a	0.02946334
139	0x3d1abdb6	0.03777858
140	0xbda7c175	-0.08191196
141	0x3d3b7557	0.0457662
142	0x3d615583	0.05501319
143	0x3df267c6	0.118361995
144	0xbc90cbf6	-0.017675381
145	0xbd6c7f98	-0.05773887
146	0xbc04fe8e	-0.008117331
147	0xbdad75cd	-0.08469734
148	0xbdada55f	-0.08478808
149	0xbde6be17	-0.112667255
150	0x3de3c4ab	0.11121496
151	0xbbb683d6	-0.0055699153
152	0x3d0ce500	0.03439808
153	0xbd28f9df	-0.04125392
154	0x3d30fbd5	0.043208916
155	0x3cec7b1d	0.028867299
156	0xbcc8794c	-0.024471901
157	0xbd4e3e50	-0.050352395
158	0xbd2e8d2f	-0.042615112
159	0x3d19c72b	0.037543457
160	0xbd53ab6a	-0.051677145
161	0x3d2181da	0.039430477
162	0xbd58d406	-0.052936576
163	0xbdd7e422	-0.1054156
164	0xbd8929a2	-0.06697394
165	0xbcefdb94	-0.029279508
166	0xbcb01a79	-0.021496998
167	0xbd1880b5	-0.03723212
168	0xbd04f486	-0.03245976
169	0xbdb4b9d1	-0.08824504
170	0xbd8ef2aa	-0.06979878
171	0xbc115f4e	-0.00887282
172	0x3dac38b4	0.08409253
173	0x3d4d8da6	0.050183915
174	0x3d2702af	0.040774044
175	0xbc2e14a8	-0.010625042
176	0x3c751035	0.014957477
177	0x3d58cc7c	0.052929386
178	0xbd38ff33	-0.045165252
179	0x3d510eaf	0.051039394
180	0xbb8536af	-0.0040653567
181	0xbdf8e4a4	-0.12152985
182	0xbcfec4ee	-0.031099763
183	0xbb9a1520	-0.0047022253
184	0xbca8bc06	-0.020597469
185	0xbd1946c9	-0.03742102
186	0xbd50259b	-0.050817113
187	0xbd82c76b	-0.06385692
188	0xbcd80244	-0.026368268
189	0x3cdc8da9	0.026923018
190	0x3cc8e453	0.024522936
191	0xbd7d3ff2	-0.06182856
192	0xbd3de2ee	-0.046358995
193	0xbbd85cba	-0.0066028507
194	0xbd1bbfaa	-0.038024582
195	0x3d91b58c	0.071147054
196	0xbdbca7b7	-0.092116766
197	0xbd56ede4	-0.052472964
198	0xbdbcf65b	-0.09226676
199	0xbd84dd38	-0.06487507
200	0xbc35f6a2	-0.011106165
201	0xbc28619b	-0.010277177
202	0x3d54e2a2	0.051973946
203	0x3cfd2297	0.030900283
204	0x3db33ec4	0.08752206
205	0x3d2253a8	0.039630562
206	0xbdba3233	-0.09091606
207	0xbd70c87f	-0.058784958
208	0x3cb5daf4	0.022199132
209	0xbd5d85e8	-0.05408278
210	0xbcbae819	-0.02281575
211	0xbcfb2f2c	-0.030662142
212	0x3cfc44ad	0.030794466
213	0xbc58230e	-0.013191951
214	0x3c6fa93d	0.014627752
215	0xbd296245	-0.041353483
216	0xbd9d254d	-0.0767313
217	0x3c070c89	0.008242735
218	0xbd5556c5	-0.052084703
219	0xbd90780a	-0.07054146
220	0xbc6cc9f7	-0.014452449
221	0xbd647aad	-0.055781055
222	0xbcc2db7b	-0.023786297
223	0x3d4d6331	0.050143424
224	0x3db71ab9	0.08940644
225	0xbd4f2d83	-0.050580513
226	0xbca3b39f	-0.019983111
227	0xbd3b8c76	-0.04578825
228	0xbd2b9bc4	-0.041896597
229	0x3cbc7cd1	0.023008736
230	0x3d11a660	0.03555906
231	0x3bd29608	0.0064265765
232	0xbd2a4a8e	-0.041575007
233	0xbd8fbb97	-0.07018202
234	0x3ca1ffc3	0.019775277
235	0xbd6ee70f	-0.058325823
236	0xbd2eb341	-0.04265142
237	0xbd7ec062	-0.06219519
238	0xbd1a4149	-0.037659917
239	0xbd633740	-0.055472612
240	0x3c75fa1b	0.015013243
241	0xbd1696dc	-0.036764964
242	0x3d24bf58	0.040221542
243	0xbcde6d43	-0.02715171
244	0xbb92b9e1	-0.004477725
245	0x3d2beadb	0.041972023
246	0xbd35e58c	-0.044408366
247	0x3ced4f8d	0.028968597
248	0x3d4ee0ad	0.050507236
249	0xbd28c473	-0.041202974
250	0xbdb14de9	-0.08657438
251	0xbdc8fa85	-0.09813408
252	0x3db33656	0.08750598
253	0x3d4356d3	0.047690224
254	0x3d6aab07	0.05729201
255	0x3d57d75d	0.05269562

layer3.0.bias f4 [64]
0	0xbcd5cdf1	-0.026099177
1	0x3cd73501	0.026270391
2	0x3d0b4209	0.033998523
3	0xbd437b75	-0.04772516
4	0x3d4876f5	0.04894157
5	0xbd24d8a0	-0.040245652
6	0xbba40c12	-0.0050063217
7	0x3b12affe	0.0022382732
8	0xbc8cda6d	-0.017193997
9	0xbcf24045	-0.029571662
10	0xbd15239d	-0.036410917
11	0x3be935c1	0.0071170037
12	0xbc03d2b2	-0.008045839
13	0x3d0691c2	0.03285385
14	0xbd471ecf	-0.048613366
15	0xbd068699	-0.032843206
16	0x3c36e1a8	0.011162199
17	0xbd30e1b6	-0.043184005
18	0xbccf2a9b	-0.02528887
19	0xbce0864d	-0.02740779
20	0x3d0d7789	0.034537826
21	0xbc8c6f66	-0.017142963
22	0x3c107e63	0.008819195
23	0xbd847f40	-0.064695835
24	0x3d4a396f	0.04937118
25	0xbd1102ec	-0.035403177
26	0xbbc5a1ef	-0.006031267
27	0xbd292c58	-0.041302055
28	0x3d396b89	0.04526857
29	0x3c023d13	0.007949132
30	0xbd35722e	-0.044298343
31	0x3d765ae4	0.060145274
32	0xbd048e25	-0.032362122
33	0xbcaff3ff	-0.021478651
34	0xbcb0db91	-0.021589072
35	0x3cb6e6ca	0.022326846
36	0x3c976646	0.018481385
37	0x3c89cc83	0.016821152
38	0xbd357b4a	-0.04430703
39	0xba97e9bf	-0.0011590048
40	0xbd2368eb	-0.03989498
41	0xbd185ee3	-0.037199866
42	0x3d2afb7e	0.041743748
43	0x3cb3eeb2	0.021964405
44	0xbbfbf755	-0.0076893964
45	0xbdaabcc0	-0.083367825
46	0x3c02bec3	0.007980051
47	0xbbf206ef	-0.0073860805
48	0x3ccd9d55	0.025099436
49	0x3cffdd96	0.03123359
50	0x3c5863a2	0.013207348
51	0x3d21c8fa	0.039498307
52	0x3bbee4ab	0.005825599
53	0x3d02fd1c	0.031979665
54	0xbd4c04db	-0.049809318
55	0x3c44c756	0.012010416
56	0xbc1fd6b1	-0.009755776
57	0x3cc036d7	0.02346365
58	0xbbe66abd	-0.007031767
59	0x3d481322	0.04884637
60	0xbceca3b4	-0.028886653
61	0x3d3b4330	0.045718372
62	0x3c1ad2e5	0.009449695
63	0xbd926c9f	-0.07149624

layer3.1.weight f4 [64]
0	0x3f93d98c	1.1550765
1	0x3f88fd5b	1.0702318
2	0x3f8f4129	1.119176
3	0x3f8c425e	1.0957754
4	0x3f9314cc	1.1490722
5	0x3f9112c6	1.1333854
6	0x3f8d6528	1.1046495
7	0x3f8cd317	1.100192
8	0x3f91d91a	1.1394379
9	0x3f8ebd0c	1.1151443
10	0x3f9139f3	1.134581
11	0x3f9c5843	1.2214435
12	0x3f9486e2	1.1603663
13	0x3f9d8172	1.2305129
14	0x3f9c2e00	1.2201538
15	0x3f951f23	1.1650127
16	0x3f8c1caf	1.0946254
17	0x3f8a1f0e	1.0790727
18	0x3f9029cb	1.1262754
19	0x3f8e907d	1.1137844
20	0x3f919252	1.1372778
21	0x3f91bc63	1.1385616
22	0x3f872306	1.0557563
23	0x3f94aca6	1.1615188
24	0x3f95fce2	1.1717799
25	0x3f937e97	1.1523007
26	0x3f8c72b7	1.0972508
27	0x3fa003c5	1.250115
28	0x3f8d6b07	1.1048287
29	0x3f909498	1.1295347
30	0x3f8af44c	1.0855803
31	0x3f979d44	1.1844869
32	0x3f8754e4	1.0572782
33	0x3f8c9181	1.0981904
34	0x3f9322d9	1.149501
35	0x3f9049cc	1.1272521
36	0x3f8fa5ca	1.122247
37	0x3f8f539b	1.1197389
38	0x3f8ec9c7	1.1155328
39	0x3f8b87a2	1.0900767
40	0x3f978d78	1.1840048
41	0x3f909b44	1.1297383
42	0x3fa1c739	1.2638923
43	0x3f998cfa	1.1996148
44	0x3f8c0241	1.0938188
45	0x3f8d3de3	1.1034511
46	0x3fa14816	1.2600124
47	0x3f8a09c8	1.0784235
48	0x3f8ef831	1.1169492
49	0x3f8cce6d	1.1000496
50	0x3f8cd9b2	1.1003935
51	0x3f89e8e3	1.0774196
52	0x3f8e18d9	1.1101333
53	0x3f95bad7	1.1697644
54	0x3f91e5ef	1.1398295
55	0x3f92642d	1.1436821
56	0x3f904799	1.127185
57	0x3f8b03d2	1.0860541
58	0x3f91fcf4	1.140532
59	0x3f8805e4	1.0626798
60	0x3f98d6de	1.1940572
61	0x3f9426ec	1.1574378
62	0x3f91cc19	1.1390411
63	0x3f8d42cc	1.103601

layer3.1.bias f4 [64]
0	0x3c13d31f	0.009022503
1	0x3d32e376	0.043673955
2	0x3d1e94ae	0.03871601
3	0xba927e7b	-0.001117661
4	0x3b92bf9b	0.0044784076
5	0x3c4da237	0.012550882
6	0x3c01d04f	0.0079232
7	0x3cb97a3e	0.022641297
8	0xbbbdca28	-0.005791921
9	0xbbfa271d	-0.007634057
10	0x3c89ff9f	0.016845522
11	0x3d420b88	0.04737428
12	0x3cebcb67	0.028783513
13	0x3c318579	0.010835045
14	0x3ce4d593	0.027933871
15	0xbac48363	-0.001499277
16	0xbc8064cf	-0.01567307
17	0x3bb67920	0.0055686384
18	0x3cc96852	0.024585877
19	0x3b097cbf	0.0020978895
20	0x3ca78a9a	0.020451833
21	0x3d09ff3e	0.033690684
22	0x3c35a28b	0.011086117
23	0xbbcec9ba	-0.006310669
24	0x3cf9d5e7	0.030497504
25	0xbab75f91	-0.0013990273
26	0xbc597a02	-0.013273718
27	0xbc0e2aaf	-0.008677169
28	0x3c04ac8e	0.008097781
29	0x3cfb5a25	0.030682633
30	0x3bf5a9e5	0.0074970596
31	0x3d25cc4f	0.040478047
32	0x3c7c2f4f	0.015392139
33	0x3ccbf871	0.02489874
34	0x3bc341dc	0.005958779
35	0x3ceefb80	0.029172659
36	0x3c01186b	0.007879357
37	0x3d20f6db	0.03929792
38	0xba977494	-0.0011555129
39	0x3bd71cd6	0.006564717
40	0x3ae6f98a	0.0017621976
41	0x3c6fd4d6	0.014638146
42	0xbb87f395	-0.0041489103
43	0x3bf7cc68	0.007562209
44	0x3ad5f71b	0.0016324254
45	0x3c0c632c	0.008568566
46	0x3b6ccefd	0.0036134117
47	0x3cbf34fb	0.023340693
48	0x3c9174aa	0.017755825
49	0x3cb54df2	0.022131894
50	0x3b72390d	0.0036960274
51	0xbbd4c3ce	-0.0064930683
52	0x3c6e49f4	0.014543999
53	0x3ccc66f6	0.02495144
54	0xbca01aa5	-0.019543955
55	0x3cf3eb63	0.029775327
56	0x3cbb99a3	0.022900408
57	0x3c785c07	0.01515866
58	0x3bdee7fd	0.0068025575
59	0x3c6d4ba4	0.014483366
60	0xbc44e1e1	-0.012016744
61	0xbbe4c7be	-0.006981819
62	0x3d035747	0.032065656
63	0xb9890450	-0.0002613389

layer3.1.running_mean f4 [64]
0	0x3ea7bd3a	0.32761556
1	0x3e444760	0.19167852
2	0x3ccf2724	0.025287218
3	0xbee65057	-0.4498317
4	0xbdb24f49	-0.08706529
5	0x3e1be5c3	0.15224366
6	0x3c30b392	0.010785
7	0x3d936564	0.07197073
8	0x3d98a968	0.07454187
9	0xbdb810d1	-0.089875825
10	0xbdae9c0c	-0.08525857
11	0xbd81c903	-0.06337168
12	0xbe2fc21e	-0.17163894
13	0xbe322acd	-0.1739914
14	0x3e23b367	0.15986405
15	0x3f423b8d	0.7587212
16	0x3e586ba7	0.21134816
17	0x3d33c290	0.04388672
18	0xbe42cd10	-0.19023538
19	0x3e52668d	0.20546933
20	0x3e0f101e	0.13970992
21	0xbd63e01b	-0.055633646
22	0x3d0edf77	0.03488108
23	0xbcfc8e2c	-0.030829512
24	0x3df8f9ae	0.121569976
25	0x3eed98ee	0.4640574
26	0x3e118e50	0.14214444
27	0x3e466317	0.19373737
28	0xbe98b49f	-0.29825303
29	0x3ed51417	0.4161689
30	0x3ea3d7c9	0.32000569
31	0x3e867229	0.26258972
32	0x3dc72633	0.09724083
33	0x3ac5569b	0.0015055718
34	0xbe819e0a	-0.25315887
35	0x3dadb411	0.084816106
36	0x3ee09f22	0.4387141
37	0x3e68d7cf	0.22738574
38	0xbecad086	-0.39612216
39	0xbcac10c9	-0.021004098
40	0x3d0fa09e	0.035065286
41	0x3f1b433c	0.60649467
42	0x3e09c694	0.13454658
43	0xbe298432	-0.16554335
44	0x3e63a0fc	0.2222938
45	0xbcbaa241	-0.022782447
46	0x3c867d5f	0.016417203
47	0x3eaa2f1e	0.33239073
48	0x3e2a3e45	0.16625316
49	0x3ef9e370	0.48806334
50	0x3e00f98e	0.12595198
51	0x3e2f3c46	0.17112836
52	0x3ec69117	0.3878257
53	0x3ead5454	0.338534
54	0x3ab5ab40	0.001386024
55	0xbd54a931	-0.051919166
56	0xbe9ec217	-0.31007454
57	0x3e9e681c	0.30938804
58	0x3dc10944	0.094255954
59	0xbe25670f	-0.16152595
60	0x3ee62368	0.44948888
61	0xbeecf89c	-0.46283424
62	0x3e265324	0.16242653
63	0x3e4d42e2	0.20045045

layer3.1.running_var f4 [64]
0	0x3df5601f	0.11981224
1	0x3e9872b5	0.29775015
2	0x3e56caa0	0.20975733
3	0x3e91f909	0.2851031
4	0x3e2f778b	0.17135446
5	0x3e5cbf78	0.21557415
6	0x3e445c7b	0.19175903
7	0x3e3d8a79	0.18509854
8	0x3e8ef928	0.27924466
9	0x3e223adb	0.15842764
10	0x3e42a081	0.1900654
11	0x3e3046d9	0.17214526
12	0x3e449cfd	0.19200511
13	0x3e4177fb	0.18893425
14	0x3e3404e0	0.17579985
15	0x3e6cfc52	0.23143128
16	0x3e6218d1	0.22079779
17	0x3e45ba13	0.19309263
18	0x3e2dd3f6	0.16975388
19	0x3eabc627	0.33549616
20	0x3e550781	0.20803644
21	0x3e25a6a7	0.16176854
22	0x3e5bf546	0.21480283
23	0x3e2701fb	0.16309349
24	0x3e103da5	0.14086016
25	0x3e420aaf	0.18949388
26	0x3e995f75	0.2995564
27	0x3e0c0fc8	0.13677895
28	0x3e3761dd	0.17908426
29	0x3e7074b6	0.23482022
30	0x3e554cb4	0.20830041
31	0x3e60e247	0.21961318
32	0x3e318237	0.1733483
33	0x3e4ff30d	0.2030756
34	0x3e74332a	0.23847643
35	0x3e6cc7a5	0.23123033
36	0x3e29306b	0.16522376
37	0x3e3b6567	0.183004
38	0x3e221e24	0.1583181
39	0x3dced449	0.10099084
40	0x3e2a211f	0.16614197
41	0x3e2d47a9	0.16921867
42	0x3e56ff51	0.20995833
43	0x3e3afaab	0.18259685
44	0x3e612041	0.2198496
45	0x3e65d699	0.22445144
46	0x3e23952a	0.1597487
47	0x3e2c7d24	0.16844612
48	0x3e1a1101	0.15045549
49	0x3e45ad1f	0.19304322
50	0x3e93c39c	0.28860176
51	0x3e808f99	0.25109556
52	0x3e54853a	0.20753947
53	0x3e4eae13	0.20183592
54	0x3e398724	0.18117958
55	0x3e2ae1bc	0.16687673
56	0x3e28df44	0.16491419
57	0x3e1fef8b	0.15618722
58	0x3e2e51b1	0.1702335
59	0x3e698b17	0.22806965
60	0x3e670776	0.2256144
61	0x3e43b163	0.19110636
62	0x3e8b3811	0.27191213
63	0x3e4d445c	0.20045608

fc.weight f4 [10, 576]
0	0xbd8b905d	-0.068146445
1	0xbcff3441	-0.031152846
2	0xbd280110	-0.04101664
3	0xbdcbe2fc	-0.09955403
4	0xbd1d202b	-0.038360756
5	0xbe259b97	-0.16172634
6	0xbe175c79	-0.1478137
7	0xbda62ce1	-0.08114029
8	0xbe3dd550	-0.18538404
9	0xbd8a4923	-0.06752231
10	0xba5ed228	-0.00084999437
11	0xbd441ff0	-0.04788202
12	0x3cc9fbd9	0.024656223
13	0xbd67acb4	-0.056561187
14	0x3911b706	0.00013896459
15	0x3ba68af4	0.0050824825
16	0x3d719606	0.058980964
17	0x3ce90a1c	0.028447203
18	0xbdafaa05	-0.085773505
19	0x3d2e7455	0.04259141
20	0x3cc2bef9	0.023772703
21	0x3b96f4ee	0.0046068346
22	0x3d3c3d91	0.04595715
23	0x3da9e4e5	0.08295611
24	0x3d30d588	0.04317239
25	0x3c8d41a0	0.017243207
26	0x3d3859dd	0.045007575
27	0x3cbe0c2a	0.02319916
28	0x3aeaa667	0.0017902375
29	0x3b523359	0.0032074063
30	0x3d78a5f7	0.06070515
31	0xbd5bd056	-0.05366548
32	0x3c904e3f	0.017615436
33	0xbc96f0a2	-0.01842529
34	0xbdf397f7	-0.11894219
35	0xbe27c4d0	-0.16383672
36	0x3bf52cfa	0.0074821683
37	0x3d808e1d	0.06277106
38	0x3d25426c	0.040346548
39	0x3d408d8b	0.047009986
40	0x3d38b3b8	0.04509327
41	0x3d73eacf	0.059550103
42	0xbdfea6f2	-0.12434186
43	0xbdb2a552	-0.087229386
44	0xbc8eaaf2	-0.017415497
45	0x3d8b4c2a	0.068016365
46	0x3b3b2837	0.0028557905
47	0xbd293fa9	-0.041320477
48	0x3d69a6d0	0.05704385
49	0x3d57eec0	0.052717924
50	0xbc377daf	-0.011199399
51	0xbe0affa9	-0.13574089
52	0xbe099cba	-0.13438693
53	0xbb8c580f	-0.0042829583
54	0xbe043baa	-0.12913385
55	0xbe0e5f27	-0.13903485
56	0x3d042f0b	0.032271426
57	0x3cd50fa0	0.026008427
58	0xbca43d5b	-0.020048788
59	0x3d67c244	0.05658175
60	0x3d0b2b1c	0.03397666
61	0x3d70196c	0.058617994
62	0x3d2e8924	0.042611256
63	0xbd47b286	-0.048754238
64	0xbd7d89d2	-0.061899014
65	0xbd878123	-0.06616428
66	0x3cd43913	0.025906121
67	0x3cbb8ba9	0.022893744
68	0x3d81a4f8	0.063302934
69	0xbd26a00f	-0.040679988
70	0x3cfba2d7	0.030717297
71	0xbc4e95be	-0.0126089435
72	0xbccf13e6	-0.025278043
73	0x3cccd0c0	0.025001884
74	0x3c53c7a9	0.012926021
75	0xbdd607df	-0.1045072
76	0xbc073888	-0.008253224
77	0x3abec6db	0.0014555113
78	0xbcf72c97	-0.03017263
79	0xbd25392d	-0.04033773
80	0xbd9cf857	-0.076645546
81	0xbd85671c	-0.06513807
82	0xbcf01e9a	-0.029311467
83	0x3d9a61de	0.07538198
84	0xbd6d306d	-0.05790751
85	0xbd0d351b	-0.034474473
86	0x3d411598	0.047139734
87	0xbddcafa3	-0.107756875
88	0x3d1571b1	0.036485378
89	0x3d141e0f	0.03616148
90	0x3cc97e03	0.02459622
91	0x3ce521d3	0.02797023
92	0x3cfb0039	0.030639755
93	0x3d330584	0.043706432
94	0x3dcbd73c	0.09953162
95	0x3db1008c	0.086426824
96	0x3d50474f	0.050849255
97	0x3dfc82ed	0.123296596
98	0x3deedb93	0.11662974
99	0x3d467181	0.04844809
100	0x3d0b69c9	0.03403643
101	0xbdad79fc	-0.08470532
102	0x3b88757a	0.004164395
103	0xbc10bfd9	-0.008834803
104	0xbdb3fc67	-0.08788376
105	0xbd27ae90	-0.04093796
106	0xbe0c53d8	-0.13703859
107	0xbd9fd0a4	-0.07803467
108	0x3d82c298	0.06384772
109	0x3d5f4a58	0.05451426
110	0x3d885add	0.06657956
111	0x3d46a93f	0.04850125
112	0x3b684f74	0.0035447748
113	0x3d8ac986	0.06776719
114	0x3cfa1def	0.030531852
115	0xbdaa5fcb	-0.08319052
116	0x3cd5d65b	0.02610319
117	0xbcd22d62	-0.025656406
118	0xbbc6d16a	-0.0060674446
119	0xbde89163	-0.11355855
120	0x3d1d7f54	0.038451508
121	0xbcef3bcc	-0.029203318
122	0xbd14349e	-0.036182992
123	0x3c191534	0.009343434
124	0xbd823224	-0.0635722
125	0xbd9f32d3	-0.07773366
126	0xbd401e56	-0.04690393
127	0xbc7b5363	-0.015339705
128	0x39aedcfc	0.00033352512
129	0x3d940630	0.07227743
130	0xbca529fb	-0.02016162
131	0x3b27260e	0.002550486
132	0x3d804cdd	0.062646605
133	0xbd2f9a36	-0.042871676
134	0xbd81ae0a	-0.063320234
135	0x3c8f2537	0.0174738
136	0x3d15c194	0.036561564
137	0xbbb2f1dc	-0.005460961
138	0x3d4b60a7	0.04965272
139	0x3c993813	0.018703496
140	0x3cf0f999	0.029415892
141	0x3d22844e	0.039676957
142	0x3c0f209b	0.008735801
143	0x3df97ead	0.121823646
144	0xbc917f49	-0.01776089
145	0xbccd0ca4	-0.025030442
146	0xbbf85cd7	-0.0075794267
147	0xbe0886b5	-0.13332637
148	0xbda26c7e	-0.079308495
149	0xbc13823f	-0.009003221
150	0xbdc2864a	-0.0949827
151	0x3c04ce85	0.008105879
152	0x3d42a02a	0.047516026
153	0xbd61b44f	-0.055103596
154	0xbd8872d1	-0.066625245
155	0xbd6a9c28	-0.05727783
156	0xbdd2e44e	-0.10297452
157	0xbda55326	-0.080725
158	0xbbce6643	-0.0062988116
159	0x3d59c6f1	0.05316824
160	0x3daf3338	0.08554691
161	0x3da3ff0f	0.08007633
162	0xbc7b3036	-0.015331319
163	0xbd41d2c8	-0.047320157
164	0x3d8ac9c2	0.067767635
165	0x3d39feaf	0.0454089
166	0x3c99448a	0.01870944
167	0x3c3e4d10	0.011615053
168	0x3dd41754	0.10356012
169	0x3b61a81f	0.0034432483
170	0xbcc12488	-0.02357699
171	0xbc4e8453	-0.012604791
172	0x3d631da6	0.055448197
173	0xbc02dec2	-0.00798768
174	0x3da19ae9	0.07890875
175	0x3d169ef1	0.036772672
176	0xbcd9b776	-0.026576739
177	0x3d76900d	0.06019597
178	0x3d1999c8	0.037500173
179	0x3bfb98e0	0.007678136
180	0xbd8b6e01	-0.06808091
181	0xbd1928a5	-0.037392277
182	0x3d6aa03c	0.057281718
183	0xbd83fa7a	-0.06444259
184	0xbd8cfcca	-0.06884153
185	0xbb20e888	-0.0024552662
186	0xbcc4d2c7	-0.024026288
187	0xbd743a2b	-0.059625786
188	0xbe1c7bc2	-0.15281585
189	0xbda855ac	-0.082194656
190	0x3d01034e	0.031497292
191	0x3d88a5bc	0.06672236
192	0x3d402339	0.04690859
193	0x3cc9765f	0.024592577
194	0x3cca4317	0.024690194
195	0x3d6594ba	0.05605004
196	0xbd66a26b	-0.056307238
197	0xbe24c575	-0.16090949
198	0x3c96c11f	0.018402634
199	0xbbd8641e	-0.006603732
200	0xbd1017d2	-0.035178967
201	0xbdc6abcc	-0.097007364
202	0xbda8d694	-0.082440525
203	0xbd751bdc	-0.059841022
204	0xbd43e1f3	-0.047822904
205	0xbdc1b44e	-0.094582185
206	0xbbbc91e7	-0.0057546976
207	0xbc8bd5e5	-0.017069766
208	0x3d236391	0.039889876
209	0x3d004aae	0.03132122
210	0xbdeea7a3	-0.11653068
211	0xbd265a0c	-0.04061322
212	0xbcf3f642	-0.02978051
213	0xbd55a30e	-0.052157454
214	0x3cb45ba3	0.022016352
215	0xbcaf65e1	-0.021410884
216	0xbe04ab9e	-0.12956092
217	0xbd3b5b41	-0.045741323
218	0xbd1bf847	-0.038078573
219	0xbd2635fe	-0.040578835
220	0xbdd7d1d5	-0.10538069
221	0x3d1c838f	0.0382114
222	0xbd9bcc5c	-0.07607338
223	0xbe192128	-0.14954054
224	0xbde0a5a1	-0.10969091
225	0x3ddb4813	0.107071064
226	0x3e1fb30d	0.15595646
227	0x3d8bee3d	0.0683255
228	0x3dd3b974	0.10338107
229	0x3d995935	0.07487718
230	0x3d92c1a3	0.071658395
231	0xbdd3014a	-0.1030298
232	0xbd9ec620	-0.07752633
233	0x3cc463a8	0.023973301
234	0x3d9c1650	0.07621443
235	0xbba3679c	-0.0049867164
236	0xbcf8518d	-0.030312324
237	0x3d22d887	0.039757278
238	0x3ca10c7e	0.019659277
239	0x3c8f166c	0.017466746
240	0xbd3b9fd9	-0.04580674
241	0xbbd47073	-0.0064831316
242	0x3da4b36f	0.08042037
243	0x3ba449a1	0.00501366
244	0xbd616f5c	-0.05503784
245	0xbc115931	-0.008871363
246	0xbdabf5fd	-0.08396528
247	0xbd08d85c	-0.03340946
248	0x3b954d4d	0.004556334
249	0xbd324903	-0.04352666
250	0xbd7bfb0e	-0.06151872
251	0xbd5a2b30	-0.053263843
252	0xbd7cfcf7	-0.061764684
253	0xbc504e2c	-0.01271395
254	0xbc53bcd5	-0.012923439
255	0xbd64257b	-0.055699807

fc.bias f4 [10]
0	0x3d025e55	0.031828243
1	0xbbbac92a	-0.00570025
2	0xbc8e2b64	-0.017354675
3	0x3cc7893e	0.024357434
4	0x3c3dc88d	0.01158346
5	0x3ce8b03f	0.028404353
6	0x3ca2d8a8	0.0198787
7	0xbd59dca1	-0.053188924
8	0xbbbcdbce	-0.0057635074
9	0xbbe02f99	-0.0068416116
